lstm_model_pytorch.pth (torch, 53238 bytes, 5 tensors)

lstm.weight_ih_l0 f4 [200, 11]
0.0022008661 0.22914116 0.10952036 0.0115437815 0.4286081 0.2265374 0.27156866 0.2629804
0.326717 -1.2632707 -1.2079602 0.053982623 0.13069753 0.17633201 0.13349564 0.4264703
0.14610615 0.18826863 0.36623603 0.008366198 -1.328525 -1.066746 -0.023288215 -0.031848878
-0.08869978 -0.043956615 -0.13488872 -0.15453689 -0.17162088 0.034114283 0.07612093 -0.20408933
-0.30978933 -0.15531787 -0.16541938 0.01787113 -0.028612658 -0.009585128 -0.031056145 -0.0014445469
0.013257198 -0.08751223 -0.13210595 -0.16211408 0.01857287 -0.016338859 -0.16480498 -0.20007603
0.041851595 -0.21284248 0.066087104 -0.07313689 -0.12528765 -1.1355784 -1.2002436 -0.14052048
-0.03321402 0.16668764 0.17230135 0.36240327 -0.06442041 0.2992232 0.13950402 0.122829564
-1.205121 -1.212893 -0.1693953 -0.14291857 0.06360926 0.035404798 0.2613963 0.06608056
0.19852857 0.017618703 -0.11927364 -1.1164796 -1.0798966 -0.2200183 -0.23234636 -0.13918786
-0.19613267 0.14012371 -0.08412671 0.27244738 0.07752054 -0.03770083 -0.8634303 -0.99336475
-0.19160554 -0.050687972 -0.08324475 -0.029029628 0.36986166 -0.08502213 0.13353056 -0.0021426594
-0.055411052 -1.0911106 -1.1490444 -0.11933051 -0.042592883 -0.060021836 -0.13910319 0.4101301
0.10279186 0.11337895 0.096392944 0.08138839 -0.98581946 -1.016641 -0.00038108256 -0.18138273
-0.046108603 -0.0770376 0.3404549 0.0022771105 0.1549123 0.15419786 -0.042640418 -0.76465434
-0.6410123 -0.042631924 -0.15977782 -0.2199827 -0.15008411 0.1921502 -0.0049635884 0.091320746
-0.17607896 -0.07283651 -0.706565 -0.67477304 0.045749746 -0.103346646 -0.06040232 0.09843237
0.39058545 0.07592753 0.25533032 0.34224442 0.027208563 -1.250707 -1.1539361 -0.10825662
-0.26778418 -0.16841243 -0.18801983 0.10417858 -0.16936539 0.3108118 -0.015715841 -0.27541777
-0.30365884 -0.17935237 0.03183835 0.021383176 0.024941912 -0.1148357 0.29510263 0.2643665
0.37795508 0.09646585 0.040332373 -0.87979835 -0.79633206 -0.018345267 -0.10555151 0.0057807006
0.038796324 0.32174197 0.18904419 0.1883575 0.06164347 0.1988205 -1.2074728 -1.1139325
-0.08683644 -0.18718098 -0.07064151 0.01923701 0.1059536 -0.043159813 -0.07172184 -0.11526305
-0.2667949 0.21039954 0.3532505 0.16164304 0.25397104 0.14933708 0.24706693 0.5683639
0.16836396 0.28728396 0.23493336 0.12077381 -1.3175197 -1.4818978 0.19311462 0.033359785
0.20716523 0.008839308 0.41545787 0.37684226 0.113370724 0.3610416 0.15525122 -1.2662896
-1.1632748 -0.16442549 -0.29049957 -0.22878787 -0.2817393 0.17274895 0.16149817 0.13439943
0.023335168 -0.1358494 -0.6829545 -0.51330763 -0.2251602 0.039888922 0.07723057 -0.030066483
0.15178543 0.15995508 0.19992837 0.14814469 -0.031899583 -0.585018 -0.63683385 -0.031844713
-0.22934197 -0.10560348 -0.052115534 0.33968303 0.019742733 0.23294337 0.06552251 -0.14955659
-1.0351801 -1.0268751 -0.1512846 -0.25423017 -0.01669912 -0.10200806 -0.13885766 -0.058403283
0.06489944 -0.17249888 -0.15561213 -0.085110545 0.14348827 0.013461397 0.0122192195 -0.0020199968
00000000: 683c 103b fba3 6a3e 364c e03d 2122 3d3c
00000010: 8572 db3e 6cf9 673e 0c0b 8b3e 5ea5 863e
00000020: 7347 a73e dbb2 a1bf 719e 9abf e21c 5d3d
00000030: 93d5 053e 6190 343e 15b3 083e 515a da3e
00000040: da9c 153e 7ec9 403e 4a83 bb3e 6112 093c
00000050: 1b0d aabf 228b 88bf edc6 bebc f873 02bd
00000060: 3ba8 b5bd da0b 34bd 4520 0abe eb3e 1ebe
00000070: 62bd 2fbe 6bbb 0b3d 4ae5 9b3d cbfc 50be
00000080: b59c 9ebe a60b 1fbe b363 29be 7a66 923c
00000090: 1865 eabc f10a 1dbc 7569 febc f356 bdba
000000a0: b834 593c 9d39 b3bd c846 07be 3c01 26be
000000b0: 2226 983c 12d9 85bc a3c2 28be bbe0 4cbe
000000c0: 946c 2b3d 61f3 59be ad58 873d cbc8 95bd
000000d0: 684b 00be a25a 91bf 95a1 99bf 9ae4 0fbe
000000e0: 6d0b 08bd 2ab0 2a3e c46f 303e ec8c b93e
000000f0: d9ee 83bd c933 993e 24da 0e3e 118e fb3d
00000100: 6841 9abf 1440 9bbf f675 2dbe 3f59 12be
00000110: 9245 823d 9f04 113d bcd5 853e 3f55 873d
00000120: 134b 4b3e 1955 903c bd45 f4bd cee8 8ebf
00000130: 0d3a 8abf 7a4c 61be 34ec 6dbe 4387 0ebe
00000140: 01d7 48be 977c 0f3e a04a acbd 397e 8b3e
00000150: 17c3 9e3d 2f6c 1abd c509 5dbf 274d 7ebf
00000160: 3e34 44be 319e 4fbd 397c aabd 8bcf edbc
00000170: 825e bd3e 1520 aebd 3cbc 083e dc6b 0cbb
00000180: b3f6 62bd 83a9 8bbf e313 93bf 8e63 f4bd
00000190: e075 2ebd 75d9 75bd 1171 0ebe 93fc d13e
000001a0: 8a84 d23d 3933 e83d aa69 c53d f5ae a63d
000001b0: aa5e 7cbf 4b21 82bf 09cc c7b9 65bc 39be
000001c0: 60dc 3cbd e4c5 9dbd 1b50 ae3e 933b 153b
000001d0: 54a1 1e3e 0be6 1d3e b8a7 2ebd 63c0 43bf
000001e0: 6219 24bf d09e 2ebd cc9c 23be 2543 61be
000001f0: a6af 19be 06c3 443e 99a5 a2bb 5f06 bb3d
00000200: 0b4e 34be 4f2b 95bd 72e1 34bf edbd 2cbf
00000210: 1664 3b3d 68a7 d3bd 6c68 77bd e996 c93d
00000220: d1fa c73e e57f 9b3d a8ba 823e a93a af3e
00000230: 7ee4 de3c 2b17 a0bf 2eb4 93bf a6b5 ddbd
00000240: 021b 89be 4f74 2cbe 4588 40be 945b d53d
00000250: 1f6e 2dbe b922 9f3e 82be 80bc 8f03 8dbe
00000260: 2c79 9bbe 26a8 37be ee68 023d c52b af3c
00000270: fb52 cc3c fb2e ebbd b117 973e 0c5b 873e
00000280: 5483 c13e e38f c53d 8f33 253d 773a 61bf
00000290: 6bdc 4bbf d048 96bc 642b d8bd 086c bd3b
000002a0: e5e8 1e3d 5dbb a43e cd94 413e cae0 403e
000002b0: dd7d 7c3d 9a97 4b3e 788e 9abf 5795 8ebf
000002c0: 4ed7 b1bd 5fac 3fbe 7fac 90bd ef96 9d3c
000002d0: 33fe d83d 58c8 30bd e6e2 92bd 090f ecbd
000002e0: 5799 88be fa72 573e 40dd b43e c185 253e
000002f0: 7e08 823e d2eb 183e 1dff 7c3e 4c80 113f
00000300: 9a67 2c3e e216 933e 5f92 703e 4258 f73d
00000310: 7ca4 a8bf d4ae bdbf d7bf 453e 45a4 083d
00000320: 1f23 543e bfd2 103c e5b6 d43e 78f1 c03e
00000330: e92e e83d 72da b83e 2dfa 1e3e c715 a2bf
00000340: 30e6 94bf 285f 28be 5cbc 94be 5e47 6abe
00000350: 2240 90be 1ae5 303e c75f 253e 01a0 093e
00000360: 6529 bf3c 1b1c 0bbe 1bd6 2ebf 2168 03bf
00000370: 6590 66be 9162 233d 102b 9e3d fc4d f6bc
00000380: a46d 1b3e 44cb 233e 06ba 4c3e 3eb3 173e
00000390: 23a9 02bd bdc3 15bf 8b07 23bf 9a6f 02bd
000003a0: 9fd8 6abe a346 d8bd 1977 55bd efea ad3e
000003b0: 83bb a13c b588 6e3e aa30 863d 5d25 19be
000003c0: c880 84bf a570 83bf 5aea 1abe 752a 82be
000003d0: 98cc 88bc 9ae9 d0bd b430 0ebe 4838 6fbd
000003e0: ffe9 843d 8ca3 30be c958 1fbe 704e aebd
000003f0: 97ee 123e 318d 5c3c 1f33 483c ec61 04bb

lstm.weight_hh_l0 f4 [200, 50]
-0.09767033 -0.00840798 -0.009585768 0.09156877 -0.078229666 -0.0073288083 -0.03826209 0.109049454
0.04480003 -0.07579671 -0.13206883 -0.054499082 -0.10832499 0.0013397485 -0.0065805465 -0.046929337
0.12869595 0.085409 -0.12726456 -0.101350754 0.010127276 0.003522098 0.0919521 0.03201136
-0.10576302 0.0077803135 0.021226525 -0.11854397 -0.03656199 0.11759566 -0.0591906 -0.051607758
0.08766845 -0.045219004 0.023159027 -0.10047885 0.023875237 -0.13831228 0.066164196 0.028011695
-0.111207835 0.14099549 0.076875046 0.100336134 -0.122957334 0.09320369 0.13525553 0.048116103
-0.050310507 -0.08685358 -0.024826825 0.11232327 -0.11202806 0.09621583 -0.13875034 0.035812825
0.12845819 -0.030688606 -0.10466975 0.08272712 0.022792622 0.015703872 -0.0085949 0.026434436
-0.02617643 0.014948443 -0.10020306 0.12357931 0.08573979 -0.007201329 -0.095358044 0.037520036
-0.06330567 -0.072097465 0.020490319 -0.07105959 0.10728586 0.031044662 0.1069137 -0.09933284
-0.0001424104 -0.086184725 0.014486283 -0.08938234 0.047397718 -0.11056975 0.028468892 -0.0054977387
0.041660875 -0.04328625 -0.078942716 0.041941702 0.136533 -0.07833821 0.13521622 0.03852418
0.027691677 0.06555726 -0.053283095 0.031092629 0.121910706 0.12939857 0.116952464 0.10543972
0.11119963 -0.13293898 -0.043054 -0.05961156 -0.017064616 -0.1235442 0.08935468 0.036049336
0.13122909 -0.061457023 0.010041937 0.13466282 0.08223134 0.13678502 0.06990498 -0.05875539
-0.09606807 0.04173042 0.041460797 -0.034950867 -0.0994699 -0.049966812 -0.055846684 0.02902408
-0.11644419 -0.043815427 0.067703605 -0.07849549 -0.04493749 -0.12664615 -0.04326024 0.03921227
-0.05251366 -0.048316777 0.10953389 -0.042357333 -0.090109326 -0.009901941 -0.007901058 -0.11507479
-0.052001573 0.06650862 0.1102813 0.024101183 0.014406383 0.01523824 0.024826646 0.03206049
0.054365307 -0.077863626 -0.012638107 -0.034746423 -0.050953403 0.07449372 0.044807598 -0.05109845
0.103535384 0.104780406 -0.07771618 0.012860477 0.14065067 0.14106621 -0.05949355 0.010026723
0.0029101372 -0.09122784 -0.1269249 0.11440615 0.12161149 0.0495577 0.13288562 -0.046062462
-0.045595594 -0.096725136 -0.109744534 0.0059480667 -0.056066215 -0.07901542 -0.13812193 -0.03672444
-0.061274998 0.13590612 -0.029599361 0.034829378 -0.112350896 -0.09821625 -0.0015231371 0.08818482
-0.07545842 0.039467677 0.14114024 -0.015533 0.004184976 0.11534135 -0.11472853 -0.11273092
0.027178839 -0.066505454 0.091101274 -0.07830239 0.117122754 0.034673482 0.11204852 0.08044541
0.0016882569 -0.032951213 0.054659918 -0.07465812 -0.050882056 -0.103207156 -0.115452096 0.062958896
-0.0945026 -0.09963377 -0.08058083 -0.073922135 0.025765523 0.0011118948 0.12498112 -0.018458381
0.05112101 -0.072617725 0.031851217 0.08779031 -0.07268029 0.0127431005 -0.09766121 -0.026146762
0.13570963 -0.030460544 0.035309553 0.032988697 -0.01630491 -0.031584904 -0.13743582 -0.1286267
-0.097871445 -0.027202435 -0.067641854 0.12826131 -0.12789081 -0.114624545 0.082758024 -0.09294925
0.08716676 0.13510515 0.11232473 0.0065816045 -0.06129592 -0.07933527 0.020394847 -0.09683635
00000000: 6207 c8bd a0c1 09bc a00d 1dbc 6888 bb3d
00000010: e036 a0bd 8026 f0bb b6b8 1cbd 5255 df3d
00000020: 3c80 373d 4e3b 9bbd 0d3d 07be 6e3a 5fbd
00000030: 7ed9 ddbd 809a af3a a0a1 d7bb fa38 40bd
00000040: dfc8 033e eaea ae3d a451 02be fc90 cfbd
00000050: e0ec 253c 00d3 663b 6251 bc3d 581e 033d
00000060: 489a d8bd 00f2 fe3b 40e3 ad3c 2ec7 f2bd
00000070: 06c2 15bd fed5 f03d d871 72bd a862 53bd
00000080: 848b b33d 9037 39bd 00b8 bd3c dbc7 cdbd
00000090: 0096 c33c bca1 0dbe 1881 873d c878 e53c
000000a0: efc0 e3bd 1f61 103e aa70 9d3d 087d cd3d
000000b0: 0ed1 fbbd 94e1 be3d 6d80 0a3e 6415 453d
000000c0: 6412 4ebd 4ae0 b1bd a061 cbbc be09 e63d
000000d0: f86e e5bd ce0c c53d 9214 0ebe 78b0 123d
000000e0: 8b8a 033e ac66 fbbc 185d d6bd d66c a93d
000000f0: 98b7 ba3c 68a5 803c a0d1 0cbc 088d d83c
00000100: f46f d6bc 50ea 743c 4337 cdbd 2617 fd3d
00000110: 5898 af3d 20f9 ebbb 144b c3bd 9cae 193d
00000120: 67a6 81bd d6a7 93bd 50db a73c b187 91bd
00000130: b0b8 db3d 6051 fe3c 92f5 da3d 046f cbbd
00000140: 0054 15b9 9e81 b0bd e057 6d3c 170e b7bd
00000150: 1c24 423d 6572 e2bd 9837 e93c 6026 b4bb
00000160: 98a4 2a3d ec4c 31bd b8ac a1bd 10cb 2b3d
00000170: 4fcf 0b3e c96f a0bd 1f76 0a3e 88cb 1d3d
00000180: a8d9 e23c e242 863d 603f 5abd f8b5 fe3c
00000190: 52ac f93d 0f81 043e c684 ef3d c8f0 d73d
000001a0: a2bc e33d 2821 08be 6459 30bd 402b 74bd
000001b0: 18cb 8bbc be04 fdbd 96ff b63d 78a8 133d
000001c0: eb60 063e 5cba 7bbd f086 243c 0de5 093e
000001d0: e868 a83d 5f11 0c3e 582a 8f3d 7ea9 70bd
000001e0: 56bf c4bd 84ed 2a3d ccd2 293d a428 0fbd
000001f0: e0b6 cbbd 00aa 4cbd 7ebf 64bd e8c3 ed3c
00000200: 4b7a eebd ce77 33bd 30a8 8a3d 3ec2 a0bd
00000210: 6010 38bd 87af 01be a631 31bd 0c9d 203d
00000220: 9018 57bd d0e7 45bd 4e53 e03d e27e 2dbd
00000230: 3d8b b8bd c03b 22bc 7073 01bc 55ac ebbd
00000240: 9aff 54bd ac35 883d 2adb e13d d86f c53c
00000250: c008 6c3c d0a9 793c 4061 cb3c dc51 033d
00000260: 28ae 5e3d f776 9fbd 1010 4fbc 4452 0ebd
00000270: 84b4 50bd 2a90 983d 2c88 373d 9c4c 51bd
00000280: 5c0a d43d 1c97 d63d a929 9fbd c0b4 523c
00000290: bb06 103e a973 103e 82af 73bd 2047 243c
000002a0: 00b8 3e3b a9d5 babd 9af8 01be c64d ea3d
000002b0: 720f f93d 04fd 4a3d 2b13 083e feab 3cbd
000002c0: 72c2 3abd d417 c6bd bec1 e0bd 00e8 c23b
000002d0: b0a5 65bd d6d2 a1bd d66f 0dbe 5e6c 16bd
000002e0: 7efb 7abd f92a 0b3e 5c7a f2bc 40a9 0e3d
000002f0: 3a18 e6bd 9a25 c9bd 00a4 c7ba 3e9a b43d
00000300: f289 9abd dca8 213d 1187 103e 207e 7ebc
00000310: 2022 893b 1638 ec3d cbf6 eabd 78df e6bd
00000320: 28a6 de3c 0334 88bd 4e93 ba3d 015d a0bd
00000330: 0ede ef3d c805 0e3d b279 e53d 90c0 a43d
00000340: 8048 dd3a daf7 06bd 14e3 5f3d 5be6 98bd
00000350: b469 50bd 465e d3bd 2672 ecbd 98f0 803d
00000360: 948a c1bd ca0c ccbd 9007 a5bd 7d64 97bd
00000370: 3812 d33c 00bd 913a 1af6 ff3d 0836 97bc
00000380: 4464 513d 9ab8 94bd 6c76 023d 68cb b33d
00000390: 67d9 94bd 70c8 503c 9a02 c8bd bc31 d6bc
000003a0: 77f7 0a3e 6488 f9bc c0a0 103d 281f 073d
000003b0: e091 85bc 2c5f 01bd fabb 0cbe b8b6 03be
000003c0: d370 c8bd a4d7 debc d087 8abd ef56 033e
000003d0: cff5 02be 46c0 eabd 0a7d a93d 2d5c bebd
000003e0: 7c84 b23d 0159 0a3e 820a e63d 80aa d73b
000003f0: 6e11 7bbd 887a a2bd 1813 a73c 2352 c6bd

lstm.bias_ih_l0 f4 [200]
0.05011693 0.06447587 0.022110607 -0.080255754 0.020640206 0.1486354 -0.113939084 -0.19163372
-0.12063031 -0.022428242 0.0046965224 -0.025151849 0.13829699 -0.1496528 0.09037622 0.014660894
-0.06333016 0.1033922 0.04254696 -0.06689504 -0.11691982 0.09290854 -0.2460842 -0.19698724
-0.09165594 0.14074405 -0.32616007 -0.13214402 -0.07557253 -0.11628835 0.04123117 -0.065362446
-0.03375171 -0.16529986 -0.17184225 -0.22646049 -0.12563509 -0.21471047 -0.11169172 -0.13752256
0.10949638 0.0029011746 -0.05951422 -0.07583714 -0.09762271 -0.12618779 -0.18697299 0.0020423303
-0.010601151 -0.09837239 -0.0930945 0.056525826 -0.11771935 -0.011895463 0.004428461 0.03249997
0.07656799 -0.07697244 0.054818228 -0.043513417 0.10812162 0.07520814 -0.05726277 -0.11135134
0.13314556 0.09622693 -0.13262194 0.03463468 -0.13254832 -0.055828847 0.01252614 0.030387357
-0.1384075 -0.1389458 0.04863374 0.05571814 -0.025526442 0.088462636 0.08852494 0.021352842
-0.10075926 0.129212 0.06126803 0.090973094 -0.008009791 0.0050371587 0.057664797 -0.13488165
-0.09036903 0.006602958 0.03307146 -0.0893732 -0.06709239 0.07802239 -0.041880265 -0.14115204
-0.11894703 -0.11118007 0.045293763 -0.09093987 -0.060190544 -0.06600188 -0.079081945 -0.023813993
-0.077513464 0.0041864207 0.04447112 -0.03897549 0.05127303 0.007550205 0.055657644 -0.060594264
0.0017680781 0.06010175 -0.013489614 0.03679841 0.0897815 -0.09878096 -0.14124474 0.040978987
-0.00047282001 0.11789812 0.05553748 0.014987857 -0.03246976 0.10644768 -0.06795725 -0.08137214
-0.05236308 -0.012825481 -0.117460184 0.030469175 0.060059834 -0.014823507 0.028966364 -0.056955487
0.04234883 -0.030200744 0.0010343638 -0.032355182 -0.022360897 -0.08077694 0.008366759 0.021369144
0.035406057 -0.055235177 -0.07125685 -0.13654801 -0.026600726 -0.053749934 0.07008363 0.16051902
-0.11875548 -0.09334733 -0.08228847 -0.0198283 -0.013057997 -0.2176233 0.045646284 -0.122065164
0.013013562 -0.11299516 0.13080826 -0.107209966 0.09372498 -0.09517496 -0.2598992 0.23084158
0.18967855 -0.22252719 -0.010165805 -0.092284806 -0.03569155 0.004203986 -0.12336608 -0.042937167
-0.21956034 0.059154574 -0.120646104 -0.033513006 -0.09171934 0.04337332 -0.0053348686 0.030802349
-0.08511572 -0.18924658 0.040574383 -0.2173407 -0.074890316 -0.036721062 0.09332153 -0.23046792
0.13825248 -0.097227946 0.05120279 -0.0939483 -0.2646273 -0.025934901 -0.09185283 -0.014400799
00000000: 6947 4d3d ed0b 843d 4e21 b53c 215d a4bd
00000010: a615 a93c e133 183e e558 e9bd a13b 44be
00000020: 060d f7bd 6fbb b7bc 49e5 993b 400b cebc
00000030: ba9d 0d3e 953e 19be 2b17 b93d 3f34 703c
00000040: 3eb3 81bd 4abf d33d b945 2e3d 4400 89bd
00000050: a973 efbd d546 be3d 7ffd 7bbe 06b7 49be
00000060: 1cb6 bbbd 351f 103e 74fe a6be c350 07be
00000070: c5c5 9abd 9628 eebd 04e2 283d bfdc 85bd
00000080: 3c3f 0abd 5e44 29be 6af7 2fbe 42e5 67be
00000090: 7ca6 00be 10dd 5bbe a1be e4bd b7d2 0cbe
000000a0: a33f e03d a221 3e3b 2fc5 73bd 8150 9bbd
000000b0: 6aee c7bd 5f37 01be d975 3fbe 9ed8 053b
000000c0: 73b0 2dbc 7777 c9bd 54a8 bebd a087 673d
000000d0: d816 f1bd 30e5 42bc a01c 913b b01e 053d
000000e0: aecf 9c3d baa3 9dbd 1489 603d 203b 32bd
000000f0: de6e dd3d ba06 9a3d 5e8c 6abd 2c0c e4bd
00000100: 4f57 083e a012 c53d 0cce 07be 18dd 0d3d
00000110: bfba 07be caac 64bd 703a 4d3c e8ee f83c
00000120: b2ba 0dbe cf47 0ebe 2c34 473d b438 643d
00000130: d41c d1bc e62b b53d 904c b53d 28ec ae3c
00000140: df5a cebd 2750 043e 30f4 7a3d 1a50 ba3d
00000150: 803b 03bc c00e a53b ec31 6c3d 6a1e 0abe
00000160: 6613 b9bd a05d d83b f075 073d 4c09 b7bd
00000170: bc67 89bd 34ca 9f3d a48a 2bbd 298a 10be
00000180: 809a f3bd 60b2 e3bd f485 393d af3e babd
00000190: 5c8a 76bd fe2b 87bd b7f5 a1bd 9015 c3bc
000001a0: 61bf 9ebd 3e2e 893b 5927 363d c3a4 1fbd
000001b0: ab03 523d b667 f73b 45f9 633d b131 78bd
000001c0: dbbe e73a 412d 763d 8b03 5dbc eeb9 163d
000001d0: 5ddf b73d ac4d cabd 76a2 10be 95d9 273d
000001e0: d4e4 f7b9 9274 f13d 457b 633d a18f 753c
000001f0: 03ff 04bd 3e01 da3d 2c2d 8bbd 70a6 a6bd
00000200: ab7a 56bd f721 52bc f78e f0bd 7e9a f93c
00000210: 4d01 763d 4bde 72bc de4a ed3c 284a 69bd
00000220: f775 2d3d 8d67 f7bc 7d93 873a de86 04bd
00000230: 332e b7bc 616e a5bd bb14 093c 580e af3c
00000240: f105 113d 483e 62bd 1def 91bd 3ed3 0bbe
00000250: c4e9 d9bc e428 5cbd 0288 8f3d 195f 243e
00000260: 1336 f3bd e32c bfbd db86 a8bd f66e a2bc
00000270: 36f1 55bc a4d8 5ebe 99f7 3a3d 4dfd f9bd
00000280: d636 553c 026a e7bd 9af2 053e e690 dbbd
00000290: e2f2 bf3d 17eb c2bd 8211 85be bc61 6c3e
000002a0: 183b 423e 2bde 63be 7a8e 26bc d1ff bcbd
000002b0: 4d31 12bd 97c1 893b 5ba7 fcbd e2de 2fbd
000002c0: 6dd4 60be 114c 723d 4e15 f7bd ef44 09bd
000002d0: 59d7 bbbd 39a8 313d 1fd0 aebb 3555 fc3c
000002e0: 2751 aebd dbc9 41be 5331 263d 8f8e 5ebe
000002f0: 1860 99bd d368 16bd 5c1f bf3d c8ff 6bbe
00000300: 0f92 0d3e 721f c7bd 04ba 513d f767 c0bd
00000310: 3b7d 87be 6e75 d4bc 561d bcbd 54f1 6bbc

lstm.bias_hh_l0 f4 [200]
0.059966963 0.011142914 -0.07253895 -0.17574751 0.048262667 -0.042625606 -0.19540839 -0.17012985
-0.056216575 -0.13962123 -0.16329081 -0.19009699 0.05075015 -0.23998629 0.06949082 -0.122654036
-0.047351073 0.19810142 0.05258408 -0.19971837 -0.08005821 -0.15069248 -0.060174055 -0.091772825
-0.039121192 -0.018814743 -0.17051962 0.012133898 -0.117611766 -0.058045316 -0.048779063 -0.17961833
0.053267792 0.028725399 -0.2595466 -0.12005545 -0.15343957 0.015916893 -0.2050616 -0.041529708
0.13940635 -0.18883742 0.05738728 -0.11191787 0.11602769 0.118130684 -0.10098953 0.006525845
-0.050491143 -0.09213219 0.096465915 0.10117082 -0.0038315356 -0.051804163 0.01002264 -0.016235828
-0.05508308 -0.015103161 -0.066265434 0.11763246 -0.03559939 0.011270121 0.01537554 0.03094685
0.033119068 0.009724721 0.13687359 0.059308514 0.10378909 -0.07687877 -0.11694159 0.05961612
-0.120930016 -0.13469298 0.11209805 -0.12435273 -0.10973349 -0.044443585 0.10719444 0.070365876
0.038782686 -0.13788016 -0.11520442 0.12852599 -0.08207242 0.035590813 0.14132033 0.1224954
-0.12897137 0.03949006 0.068927616 -0.08208364 0.1411546 -0.05049611 0.13267113 0.05206646
0.011595279 0.080968335 0.0782665 0.073322505 0.098618306 0.10058677 0.016349696 0.0978976
0.047874607 0.12178982 0.10840828 0.018358251 0.062687226 0.08721994 -0.12482711 0.087884426
-0.010986904 -0.045482617 -0.06455751 -0.04259935 -0.037512895 0.119009435 0.06730175 -0.07282207
0.0006844456 -0.034868184 -0.06486475 0.0076201237 0.031727932 0.041072626 0.061554573 0.027282547
0.018234443 0.06979995 -0.14038007 -0.08658281 0.029736014 0.060270727 0.07074124 0.14459373
0.0345068 0.057322625 -0.05681675 0.03445493 -0.0394886 -0.022395195 0.12903692 0.09238149
0.0818058 0.06458566 0.08964918 0.05529882 -0.0142909745 0.026734391 0.22973482 0.1941091
-0.01425964 0.010104802 0.067075744 0.16182141 -0.21910699 -0.04114752 -0.08956437 -0.08482823
0.013652198 -0.1482934 0.10437342 -0.17393747 -0.09390585 0.06579394 -0.18364346 0.016311571
0.17257798 -0.26562372 -0.17109793 -0.123305954 -0.0059120106 -0.21590513 0.09191531 0.045870088
-0.23725177 -0.0103832735 -0.15326817 -0.050931048 0.06487357 -0.23694792 -0.04585393 -0.15466863
-0.19849037 0.011550254 0.0065267435 -0.174834 -0.101197064 -0.20253105 0.026550444 -0.23034516
-0.07444907 0.08632976 -0.07211227 0.03227716 -0.30002132 0.16067226 -0.19965023 -0.02746965
00000000: eb9f 753d c590 363c 4d8f 94bd 28f7 33be
00000010: 13af 453d 3098 2ebd 2319 48be 8536 2ebe
00000020: 5a43 66bd def8 0ebe b535 27be c9a8 42be
00000030: 64df 4f3d f7be 75be 3451 8e3d 0a32 fbbd
00000040: 33f3 41bd 19db 4a3e 6762 573d f982 4cbe
00000050: 8ff5 a3bd 214f 1abe 1279 76bd 64f3 bbbd
00000060: 8b3d 20bd 6021 9abc b29c 2ebe 42cd 463c
00000070: 70de f0bd edc0 6dbd 8ecc 47bd deed 37be
00000080: 542f 5a3d 8751 eb3c 4be3 84be a2df f5bd
00000090: 431f 1dbe 2564 823c abfb 51be 0e1b 2abd
000000a0: 8ac0 0e3e 995e 41be ed0e 6b3d 3235 e5bd
000000b0: ed9f ed3d 80ee f13d 99d3 cebd c1d6 d53b
000000c0: cdcf 4ebd cdaf bcbd ec8f c53d a632 cf3d
000000d0: 801a 7bbb 9a30 54bd 0036 243c 0001 85bc
000000e0: cc9e 61bd 4073 77bc 2cb6 87bd 4ae9 f03d
000000f0: aad0 11bd 50a6 383c b0e9 7b3c 4084 fd3c
00000100: dca7 073d 7054 1f3c 9728 0c3e 7ced 723d
00000110: 608f d43d 9e72 9dbd 137f efbd 0830 743d
00000120: 28aa f7bd f5ec 09be aa93 e53d a5ac febd
00000130: f4bb e0bd 7a0a 36bd c288 db3d fc1b 903d
00000140: 98da 1e3d 7530 0dbe 4cf0 ebbd 519c 033e
00000150: 9615 a8bd acc7 113d 47b6 103e dede fa3d
00000160: 1211 04be 54c0 213d ec29 8d3d 781b a8bd
00000170: d58a 103e 02d5 4ebd f1da 073e a443 553d
00000180: 20fa 3d3c bad2 a53d 304a a03d 1c2a 963d
00000190: 65f8 c93d 7000 ce3d ccef 853c 897e c83d
000001a0: 2a18 443d f16c f93d 2905 de3d 0b64 963c
000001b0: 2962 803d 5ea0 b23d 5ba5 ffbd c0fc b33d
000001c0: 6a02 34bc fb4b 3abd ba36 84bd a87c 2ebd
000001d0: 1fa7 19bd 38bb f33d 80d5 893d bd23 95bd
000001e0: 5e6c 333a f1d1 0ebd cfd7 84bd 3bb2 f93b
000001f0: 26f5 013d c53b 283d a620 7c3d a67f df3c
00000200: 6660 953c 47f3 8e3d cbbf 0fbe 5452 b1bd
00000210: f198 f33c 70de 763d c9e0 903d 6110 143e
00000220: 0157 0d3d 21cb 6a3d aeb8 68bd 9d20 0d3d
00000230: ccbe 21bd 2176 b7bc 4122 043e 8232 bd3d
00000240: cd89 a73d 7d45 843d fd99 b73d 0481 623d
00000250: b124 6abc 1502 db3c 9b3f 6b3e 89c4 463e
00000260: 44a1 69bc 9d8e 253c 025f 893d 83b4 253e
00000270: 955d 60be 4d8a 28bd 866d b7bd 6cba adbd
00000280: 78ad 5f3c 3ada 17be bbc1 d53d aa1c 32be
00000290: b651 c0bd f9be 863d 080d 3cbe d89f 853c
000002a0: 48b8 303e d5ff 87be 4c34 2fbe d587 fcbd
000002b0: 8ab9 c1bb 3c16 5dbe 183e bc3d 46e2 3b3d
000002c0: 21f2 72be 9b1e 2abc 55f2 1cbe 139d 50bd
000002d0: 6fdc 843d 7aa2 72be 55d1 3bbd 7461 1ebe
000002e0: 0f41 4bbe 473d 3d3c 4bde d53b af07 33be
000002f0: 6840 cfbd 4d64 4fbe 5180 d93c 9adf 6bbe
00000300: c178 98bd a8cd b03d 99af 93bd 0e35 043d
00000310: 659c 99be 4587 243e 1c71 4cbe 0808 e1bc

fc.weight f4 [1, 50]
-0.44768742 0.36755547 -0.0145850275 0.0047245733 0.15587658 -0.29871923 -0.122884996 0.11917122
-0.12266452 -0.08934871 0.1453641 -0.013396351 -0.27036992 -0.0030516542 0.2212905 0.1850505
0.08885568 -0.3584063 0.45266864 -0.009067157 -0.053505875 -0.15110579 -0.016748913 -0.0052551785
-0.16679518 -0.31781915 -0.0016174244 0.09942718 0.019829419 -0.05200891 0.088389166 -0.0033785945
-0.15250453 0.020959105 0.012103937 -0.072286084 0.026240362 -0.09493177 0.014475478 -0.0018074517
0.34861395 0.0015374733 -0.2398953 -0.1572445 -0.23975249 -0.18191019 -0.011832799 0.38164082
0.020508198 0.182331
00000000: 4937 e5be 3b30 bc3e 0af6 6ebc 98d0 9a3b
00000010: 1c9e 1f3e baf1 98be 21ab fbbd 0a10 f43d
00000020: 8937 fbbd 75fc b6bd 54da 143e 5e7c 5bbc
00000030: ed6d 8abe 43fe 47bb fa99 623e e17d 3d3e
00000040: f7f9 b53d 0881 b7be 2fc4 e73e 6a8e 14bc
00000050: fa28 5bbd 7abb 1abe 0435 89bc a233 acbb
00000060: 5bcc 2abe 31b9 a2be c2ff d3ba 7aa0 cb3d
00000070: 4e71 a23c 4b07 55bd 6105 b53d 696b 5dbb
00000080: 262a 1cbe 6eb2 ab3c 974f 463c ba0a 94bd
00000090: 07f6 d63c 966b c2bd 8e2a 6d3c 04e8 ecba
000000a0: 877d b23e 0b85 c93a 1da7 75be b404 21be
000000b0: ad81 75be aa46 3abe 5bde 41bc 6d66 c33e
000000c0: cf00 a83c fab4 3a3e
